models/dqn_model.pth (torch, 72621 bytes, 6 tensors)

fc1.weight f4 [128, 3]
00000000: 1227 f3be 491d 11bf 921b 62be 7db7 70bd
00000010: e1ab 5dbd c60e a8bd 2b0e 8a3e 22fa bb3e
00000020: 8305 3a3e a183 233f f2d3 fcbe 656c b3be
00000030: 269d 873e 6960 89be c78b 27be 7b0f aabe
00000040: 0189 023f ca3f 2dbf 7865 c73c 906b 613e
00000050: 7ee0 f03d 38a9 d33e 968c 2dbe 6f19 0bbe
00000060: 745d febe 37cb 353e 969e 84be 5799 a83e
00000070: b620 de3e 56a8 8b3d b962 573e a7fe 943d
00000080: af71 223e ea7e 993d 8edc ebbe 9eef 79be
00000090: 5165 c53e 0635 d53d f62d 8b3e 7feb a1be
000000a0: 887e cfbe d957 013d 7432 4fbe 88b3 57be
000000b0: ce61 e2be 968f 22be 194e 00bf f8c2 51be
000000c0: 0641 dfbe 855b c83b c13a 60bd 7c09 113f
000000d0: 253c 073f 34eb c43d f99e f33e aba7 ed3e
000000e0: 6623 323e 4a70 003f 6a01 163e 2464 29bf
000000f0: 826a 653c 67b6 27bf fead c1be d950 50be
00000100: d4b8 75bd 38e7 50be 06ea 87bf e748 b3bd
00000110: a716 ce3e 402f b8bd 57a5 90be b79e cdbe
00000120: f4a2 97be 5c17 e8bc 0d37 c13d c385 04bf
00000130: b1b8 153e 168d 08bf a6ac 2abe e1ae b6be
00000140: 78bf 6f3e 0dbf 99bc 639e 13be d0d2 c7be
00000150: 316e d5be c02e d23c c819 adbe 0d68 e5be
00000160: f065 453d b0da 10bf 31dd e0be 0b63 8d3d
00000170: e9ba a4be 353b 49bf d12f cebe cabe 513e
00000180: 37a5 a4be 43ad abbe de65 2e3e 8288 31bf
00000190: 1537 17be e135 363e 688a 14bf b467 963e
000001a0: 2e21 1fbf 9297 473d 0865 15be 3bc1 ecbd
000001b0: aa77 8e3e f97a 40bd 95f8 25bf e4d7 12bf
000001c0: 3584 653e 10de c9be 4fe0 003f b360 0c3f
000001d0: 2c59 0e3f 79ee fcbd bea0 2abf 7a2a c73e
000001e0: b8d3 09bf 025a 77be 5a18 9bbe 9d17 653d
000001f0: 1c14 c6be 956d 923c f07e c0be 5ca0 6dbe
00000200: ac7f 1fbe e868 f7be 39df b83e 0923 f8be
00000210: b429 fdbd 0ab2 bbbe 1c9b cdbd 61fc 693e
00000220: a9c3 16be 5840 37bf 318d e7be 4054 59be
00000230: 5444 aabe 1fa2 7cbe d129 31be ae37 af3e
00000240: 758b 8c3d dd48 42bf 618e 2dbe 2cff 5f3d
00000250: 29d5 fbbd 0ef2 ccbd 6412 1dbf 5d71 6dbc
00000260: 3d5d d0bd e7da f1be d0c0 ec3e c053 c4be
00000270: 0df9 efbd d728 67be c172 973d 3476 9cbe
00000280: 61c1 39be 9242 a93d bcd7 59bf 8e87 113e
00000290: a428 74be afdf 24bf 6303 eabe 2876 503d
000002a0: 6801 9e3e b267 b23e 9d3b 13bf 02ac d7be
000002b0: 9d9d 1e3d bbbd 5fbe ca5a b4bc 6226 e5be
000002c0: 0a42 1f3e 7d47 793e 6153 c53e d221 cf3c
000002d0: b8b4 d9be c3b4 353d e63b e9be 9f45 923e
000002e0: 7a4d fcbe 6bdc 533e adcb f63d 73e9 39be
000002f0: 037a ba3d bade d2be 9e08 43be 10e1 003d
00000300: bcad 53be ef20 bfbe 532d 943d 56bd a7be
00000310: a78f 83be 97e8 59bd 0123 b2bd d7ea 783e
00000320: 1d19 03bf 78c3 c0bd 046e 36bf d6a4 fa3e
00000330: bb5e 46be 52b1 48bd 51f8 13bf 2490 893d
00000340: 9e5f 5dbe 7940 423d e1b1 453e 402e aabe
00000350: 225d 1bbf 0941 f1bd 0906 9ebe 686f 813e
00000360: 7395 c93e c2b8 84be 773e a53e 712c 973e
00000370: d8d3 94be 23ef 683e 41bc 7d3e 35e1 ea3e
00000380: 9a2b 6dbe 87e5 a0bd b372 b8be f7d5 48bf
00000390: c616 703e f266 ac3e 517e d6be 02c3 e0be
000003a0: 8093 353e 7e3d bc3c ce15 4ebd 45e2 29bf
000003b0: 073d e3bc 2242 94be 52ce 12bf 3a84 823e
000003c0: 01ab 2b3e 4c9f 42bf a3a5 c03e 7176 c83e
000003d0: 671c b6be d038 15bf 817e 08be f996 e1be
000003e0: a43a c0be 4e89 ea3d 0090 0b3e 3d22 ccbd
000003f0: 4f76 24bf aaa6 a73d 2c0d 99be f3ed 6cbe
-0.47490746 -0.5668531 -0.2208083 -0.058768738 -0.054118995 -0.08205943 0.26963934 0.36714274
0.18166165 0.63872725 -0.4938045 -0.35043636 0.26487082 -0.26831368 -0.16361915 -0.33214936
0.509903 -0.6767546 0.024340376 0.22013688 0.117615685 0.4134004 -0.1694816 -0.13583921
-0.49680674 0.17753302 -0.2590224 0.3292949 0.4338433 0.06819217 0.21033753 0.072751336
0.1586368 0.0749491 -0.46066707 -0.24407813 0.3855386 0.10410504 0.27183503 -0.31624982
-0.40526223 0.03157792 -0.2023409 -0.2106458 -0.44215244 -0.15875086 -0.5011917 -0.20484531
-0.43604296 0.0061144256 -0.054743532 0.56655097 0.5282615 0.09615174 0.47582224 0.46416983
0.17396316 0.5017134 0.14648977 -0.6616843 0.014002444 -0.655127 -0.37828058 -0.20343341
-0.05999072 -0.20400703 -1.0618293 -0.087541394 0.40251657 -0.08993387 -0.28251144 -0.40160152
-0.2961651 -0.028331451 0.09434328 -0.51766604 0.14621235 -0.5334028 -0.16667423 -0.35680297
0.23412883 -0.018767858 -0.14415888 -0.39028025 -0.41685632 0.025657058 -0.33808732 -0.44805947
0.04819292 -0.5658369 -0.43918756 0.069036566 -0.3217385 -0.7860597 -0.40270856 0.20482937
-0.321573 -0.33530626 0.17031047 -0.6934892 -0.14767106 0.1779399 -0.5802369 0.29375994
-0.62160003 0.048728533 -0.14589322 -0.11560293 0.2782567 -0.046992276 -0.6483243 -0.5736067
0.22413714 -0.39427233 0.5034227 0.5483505 0.55604815 -0.123501725 -0.66651523 0.38899595
-0.5383868 -0.24155429 -0.30292016 0.055930723 -0.38687217 0.017874518 -0.37596846 -0.23205703
-0.15576047 -0.48322225 0.36107805 -0.4846423 -0.1236147 -0.3665927 -0.100393504 0.22850181
-0.14723076 -0.71582556 -0.45224908 -0.21223545 -0.33255255 -0.2467122 -0.17301108 0.34222168
0.06862537 -0.7589243 -0.16948844 0.05468671 -0.122965164 -0.10007106 -0.61356187 -0.01449236
-0.10174034 -0.47237322 0.46240854 -0.38345146 -0.117174245 -0.22574173 0.073949344 -0.30558932
-0.18140174 0.082646504 -0.8509481 0.14211866 -0.23843628 -0.64403814 -0.4570571 0.050893933
0.30860448 0.34844738 -0.5751284 -0.4212342 0.03872453 -0.2184972 -0.022015948 -0.44755846
0.15552536 0.24343677 0.38540176 0.025284681 -0.4252069 0.04436184 -0.4555351 0.28568742
-0.4927786 0.20689552 0.12050567 -0.1815546 0.09105303 -0.41185552 -0.19046256 0.031464636
-0.20671743 -0.37329814 0.072352074 -0.3276164 -0.25695536 -0.05320033 -0.08698083 0.24308334
-0.51210195 -0.09412283 -0.7126162 0.48953885 -0.19372074 -0.04899723 -0.57800776 0.06716946
-0.21618506 0.047424767 0.19306137 -0.3323841 -0.60688984 -0.117799826 -0.3086398 0.2528031
0.39371833 -0.2592221 0.3227422 0.29526094 -0.29067874 0.22747473 0.24778844 0.45874944
-0.23161164 -0.07856279 -0.3602501 -0.78451484 0.23446187 0.3367229 -0.41893247 -0.4389878
0.17732048 0.02297854 -0.050313763 -0.66360885 -0.027739061 -0.28956705 -0.5734607 0.25491506
0.16764452 -0.7602432 0.3762637 0.39152864 -0.35568544 -0.58289814 -0.13329507 -0.44060495
-0.3754474 0.1145197 0.1362915 -0.09967468 -0.64243025 0.081860855 -0.29892862 -0.23137645

fc1.bias f4 [128]
00000000: 0b80 d33e 6248 a03e 1946 1d3f 833c 0ebf
00000010: c5eb 6d3f 8164 27be 8d1c 0e3f 37b4 f53e
00000020: 428f 4f3f 134b b03e 84d8 5e3f 6eab 6cbe
00000030: 516c a33e f554 fe3e b2f1 9cbe f245 0dbf
00000040: 5b79 dc3e ccc8 c2be cf50 6dbe edde acbd
00000050: 76fa 8c3e 6aa7 113f 22d2 11be eb50 6b3f
00000060: 4140 c83e d270 a83d 87a2 403f 2302 e53e
00000070: 5cdd b6bd dabf 43be 12d6 303f 5d09 8cbe
00000080: 0039 8d3f 0e8e a13e c1e2 093f ec4a 903f
00000090: 4c7b e03e 9e29 423f a9a8 803f 9d7f 3e3f
000000a0: 0b02 323f 6b05 1f3f ea01 923f 2535 293f
000000b0: 6cd7 e5bd 184d 853e d2d4 203f c9b8 dd3d
000000c0: c1d8 f83e dee6 523f 5d09 be3e 0729 373f
000000d0: 6845 623f 7ed0 6a3f cf0a 84be c495 c13e
000000e0: 8409 5e3f 2fce 4a3f 81ba 003f 7fe6 bd3e
000000f0: 885b 523f 35a2 213e 4c21 303f 82b1 24be
00000100: 8d8a 8f3d c597 783f bc7c d63e 6fc9 e7bd
00000110: 09c3 053f 2916 8b3f fe3a d03e ed9b 8f3f
00000120: 8286 353f 3d53 6c3f a8bf 803f 30a6 1c3f
00000130: 9686 ae3e e826 013f a890 883d 7666 543e
00000140: 70dd 6c3e 74b8 563f 3295 963f 28ee 073f
00000150: 7504 a83e cf75 633f bad0 cd3e 85e9 3d3e
00000160: e840 373f 6a2b 243f c834 153f 7e01 04bf
00000170: ecf6 08bf 113a 2a3f e140 0b3f fe10 653f
00000180: 255d 1c3f 6ad5 bfbe b615 a9bb 3f5a 853f
00000190: 3758 913e e59c 753f f116 71be bcac 673f
000001a0: 40a3 d2bc 5295 d73d d553 693f 883b 373f
000001b0: 3bf8 403f 72de c93d bb8b 0a3f db29 22be
000001c0: 31e3 073f 0c15 66be 50f1 653d 4e6d 0bbf
000001d0: 67a3 793e baf7 91be 5784 17bf 30ab 953e
000001e0: 106b 113f b294 e43e 632b aa3e c9f1 783f
000001f0: 479f 3b3f 74f3 d1bd 405b 053f 70c0 b2be
0.41308627 0.31305224 0.61435086 -0.55561084 0.9293788 -0.16346933 0.55512315 0.47989056
0.8107797 0.34432277 0.87049127 -0.2311227 0.31918576 0.49674192 -0.3065315 -0.55184853
0.43061337 -0.3804382 -0.23175357 -0.08440957 0.27534837 0.5689608 -0.14240316 0.91920346
0.39111522 0.08224644 0.75248 0.44728193 -0.0892894 -0.19116154 0.69076645 -0.27350894
1.103302 0.31553692 0.53861624 1.1272864 0.43844068 0.7584475 1.0051471 0.7441347
0.6953437 0.6211764 1.1406834 0.6609672 -0.11222729 0.2603538 0.6282474 0.108262606
0.4860287 0.82383525 0.3711652 0.7154698 0.88387156 0.91724384 -0.25789496 0.37809575
0.8673327 0.7922086 0.5028458 0.37089917 0.82170916 0.15784533 0.68800807 -0.16083339
0.07008848 0.9710658 0.4189204 -0.11317717 0.52250725 1.0866138 0.40670007 1.121946
0.7090837 0.9231451 1.0058489 0.6119108 0.34087056 0.5044999 0.06668216 0.20742211
0.23131347 0.83875203 1.1764281 0.5309777 0.328159 0.88851637 0.40198308 0.18546112
0.71583414 0.64128745 0.5828366 -0.51564777 -0.5350177 0.6649485 0.5439587 0.89479053
0.6107963 -0.3746751 -0.005160059 1.0418166 0.28387615 0.9594253 -0.23543908 0.90497947
-0.02571261 0.105265275 0.9114354 0.7157521 0.7537877 0.09856881 0.5411946 -0.15836279
0.5308104 -0.22468966 0.056138337 -0.5446366 0.2437874 -0.28509313 -0.5918631 0.29232168
0.5680399 0.44644696 0.33236226 0.97243935 0.7328991 -0.10251513 0.5209236 -0.34912443

fc2.weight f4 [128, 128]
00000000: 7859 d03c 56bf c3bd e450 42be 0f7b 8dbe
00000010: 050c aabd b222 b13e 8091 36bd 78e8 2bbe
00000020: 6e9c 6cbc 13a1 5bbe 22be 36bd 506a 54bd
00000030: f65c f6bd 2dc0 f7bc 3dc9 9f3d de78 aebd
00000040: 0ec7 a73b 17d5 27bf adef 55bf 1ca9 dbbd
00000050: 659e 9f3d 2fca 883d 8984 113e 7533 a4bd
00000060: 3df6 423c 74dc b63d 2e3e d4bd fd73 f4bc
00000070: f70c b33d 0048 0739 2b5e 073e c70b 8f3e
00000080: b8f2 99bb 621e 273d 1268 dd3e 71a5 ccbd
00000090: a263 23be 642f 0b3e 066a 17be 2260 57bd
000000a0: fb72 133e 8993 92bd b7d0 bc3e a7bc f5bd
000000b0: f739 58bd 058b 1dbe 1b36 df3d 9a7b 00be
000000c0: a0d0 f43c b281 0abe b046 073d 59b0 523e
000000d0: 57e1 80bc 1acb 8abd 3fa9 aa3d abda 613c
000000e0: cc3c a8bd 13ef aa3d c65d bcbd b077 c7bd
000000f0: c800 f73e bd25 82be 8b99 1dbe 43d4 5bbd
00000100: 9ebc babc b256 c23d 41a5 14be de02 05be
00000110: a106 703e 93fa 63bd 8873 cdbb 6145 14bd
00000120: 4694 0fbd aca2 2cbe 013a 26be 7cd6 4e3e
00000130: 4fff d1bd bf4b afbd 2332 1b3d dc91 a63e
00000140: 5527 23be 7380 0ebd 6ca9 323e b6ba a1bd
00000150: 8c14 283e b9bd e93c e317 6c3e b9ab 85bd
00000160: 4784 45bb fa91 b0bd bdcc 99bd 86fc a33e
00000170: b4d3 89bc 5fab e6bd 9b1b 53bd 52ff 23be
00000180: d2ea 6abd 9016 cebb 81ec 5d3a 7e01 63be
00000190: 46f8 5ebd 22b5 073e 9279 173d e32a 63bd
000001a0: 7faf 953d 6576 6fbe 095b d7bd 3584 733d
000001b0: da77 8cbd b566 52be 91ed 1cbd 74e3 983d
000001c0: 31d7 043d 2ad5 57be 749a 25be cf93 39bd
000001d0: 4fed 20be 724a 1a3d 7b55 79bc 0a19 d53d
000001e0: b414 02bc 58f1 a33e b9e0 0dbe 2bd8 e9bd
000001f0: 6574 c33d c1b6 933e 6ef4 263e 5cbb 4abd
00000200: 1180 03be 4ef1 54be 9c53 71be 505e 1fbf
00000210: 5334 8dbe 32ad 2f3e 3b44 1fbe f30a 49be
00000220: da8c 3ebd 8a20 3bbe 5ec5 14be ea5b 243c
00000230: 006c 24be fb57 543e 0b62 afbd b8e3 8abc
00000240: cead 45be 7100 5cbf aa36 8ebf 524f abbd
00000250: 9639 a2bd b59d d8bd cb02 09bf 01bf 913e
00000260: 459b 8f3c ef66 80be a2db 883d 0d98 0bbe
00000270: a08a 20bb 6f4f b1bd 75f5 14be d14f e9be
00000280: 82c5 8a3d 2158 233c 637f 4e3d 8fd4 343d
00000290: 82d4 2abe b88f 5dbd d6c2 adbd 5f0b 263e
000002a0: 539b 19bd 3ffd 0bbd 01ef ac3e bd13 6bbe
000002b0: fc3d 04bd 72c9 74be 6529 e2bc b197 1c3b
000002c0: 97b5 14bb fc80 83bd baad d5bd 65e6 57be
000002d0: 8ffa 0ebd 6d8d 4f3d e2e7 823b f2ff 5fbc
000002e0: 168e 6bbe 3f79 d73d f523 c83d 34a1 93be
000002f0: b700 a73c aadf 2ebe c44d e3bd c4af 9bbc
00000300: 14c2 5b3c 6932 be3e 171c 80be 4f11 5a3e
00000310: 2471 2f3f f06c bfbd 79a1 22be 07ff ac3d
00000320: 2e9b 8dbd b4a5 50be 03fa 49be 63e6 a73e
00000330: 1405 49be 0f75 b8bd c83a 163e e244 17be
00000340: 7b52 adbc ca23 46be 7fe4 c13e 94fa 2dbe
00000350: cd2d 39be 097f 743e 2d0d 09be 1496 b5be
00000360: 1740 033c ceed a63e 2268 60be ef5a 01be
00000370: 8719 9c3d 2b39 bb3e 0f2d 43be 14eb 94bd
00000380: 0f50 bb3a d037 343c 2684 a8be c996 f6bd
00000390: fd54 263e 5402 003e 989b 553d 48fd 7d3c
000003a0: 30ad 0fbd 431b 09be eb64 adbd 4924 d03d
000003b0: 17b2 11be 5321 a0be 05ac 9fbd 2187 7b3e
000003c0: 1bf5 1abe 5ad7 99be 877d f6bd 30fa 81bc
000003d0: ff10 48be 322a 953e 29e0 123e 9a8c 85be
000003e0: 0cc8 71be 469a 9c3e 7375 8cbe 471f b73d
000003f0: cb30 20be cbfa 41be 8245 5d3e 405d 94bc
0.025433287 -0.09557979 -0.1897617 -0.2763295 -0.08303074 0.34596783 -0.044572353 -0.16787899
-0.014441593 -0.21448164 -0.04461492 -0.0518592 -0.1202945 -0.030243004 0.07802055 -0.08519147
0.0051201647 -0.65559524 -0.8356884 -0.107256144 0.07793883 0.066791885 0.14210714 -0.08017627
0.011899528 0.08928767 -0.10363422 -0.029840464 0.08742707 0.00012901425 0.13219516 0.27938673
-0.004698124 0.04080046 0.43243462 -0.09992493 -0.15955976 0.13592297 -0.14786538 -0.052581914
0.1439933 -0.07157046 0.36877987 -0.11998873 -0.052789655 -0.15385063 0.10898992 -0.1254715
0.029884636 -0.13526037 0.033026397 0.20575084 -0.01573245 -0.0677702 0.083330624 0.013785045
-0.08214721 0.08346381 -0.09197573 -0.097396255 0.48242784 -0.25419417 -0.15390603 -0.053669225
-0.022795018 0.09489192 -0.14516164 -0.12989375 0.23440029 -0.055658888 -0.006269876 -0.036198977
-0.035053514 -0.1685893 -0.16233064 0.20199007 -0.102537744 -0.08559369 0.03788961 0.32533157
-0.15932973 -0.034790467 0.17447442 -0.078969404 0.16414088 0.02853285 0.23055987 -0.06526894
-0.0030138658 -0.08621593 -0.07509754 0.32028598 -0.01682458 -0.11263155 -0.05154 -0.16015366
-0.05735285 -0.0062893108 0.0008465723 -0.22168538 -0.05443599 0.1325269 0.036981173 -0.05546082
0.07308864 -0.23385008 -0.105154105 0.059452254 -0.06858797 -0.20546992 -0.0383125 0.07465258
0.032431785 -0.2107741 -0.161722 -0.045306977 -0.15715526 0.037668653 -0.015218134 0.104051664
-0.007939506 0.32020068 -0.13855256 -0.11418184 0.09543685 0.28850368 0.1630418 -0.049495086
-0.12841822 -0.20795175 -0.2356705 -0.62253284 -0.27578983 0.17155913 -0.15553372 -0.19633083
-0.046521045 -0.18274131 -0.14528415 0.01003168 -0.16056824 0.20736687 -0.08563622 -0.016954288
-0.19304582 -0.85938174 -1.1110432 -0.083647385 -0.0792114 -0.10576955 -0.53519887 0.28466037
0.017530093 -0.25078532 0.06682517 -0.13632222 -0.002449669 -0.08657729 -0.1454676 -0.45568708
0.06775953 0.009969742 0.050414454 0.044148024 -0.16682628 -0.05409214 -0.08484428 0.16215275
-0.037501644 -0.03417706 0.33776096 -0.22956748 -0.032285675 -0.2390497 -0.02760763 0.0023894126
-0.0022691244 -0.06421086 -0.10433526 -0.21083982 -0.03490692 0.050671984 0.0039949277 -0.013671862
-0.2300342 0.10521173 0.09772483 -0.28833926 0.020386083 -0.17077509 -0.11098817 -0.01900471
0.013412971 0.37147835 -0.2502143 0.21295665 0.68532014 -0.0934695 -0.1588191 0.0844708
-0.06914364 -0.2037571 -0.19724278 0.3279296 -0.19630843 -0.09006702 0.14670861 -0.1477237
-0.021157494 -0.1934959 0.3786964 -0.16990119 -0.18083878 0.23876585 -0.13383932 -0.35466063
0.008010886 0.32603306 -0.21914724 -0.12632345 0.076220565 0.36567053 -0.19060157 -0.072714
0.0014290827 0.010999635 -0.3291332 -0.12040479 0.16243358 0.12500888 0.05215034 0.0155022815
-0.035077274 -0.13389306 -0.08466514 0.10163171 -0.14228092 -0.31275424 -0.07796482 0.24563266
-0.15132563 -0.30047113 -0.12035661 -0.015866369 -0.19537733 0.29133755 0.14343323 -0.26083833
-0.23611468 0.3058645 -0.27433357 0.089415126 -0.15643613 -0.18943326 0.21608546 -0.018110871

fc2.bias f4 [128]
00000000: abf5 1f3e 98b5 4d3e 5c8e fdbc 7a2a a1bd
00000010: fe01 583c 1263 45bd 69b4 bcbd 8bf2 b7be
00000020: b83c 56bd c302 6f3e 01a8 853e 2a1d 193e
00000030: 29c2 b63e d478 6e3e 125f 5bbd c00d fc3e
00000040: 61cf 4d3e 619f a7bc 2fc4 f8bc 3d16 9d3d
00000050: 91ee 6c3e 08be 33bd b064 6f3d 604e 31bc
00000060: 2cda 493e e817 2e3f 8f75 2bbd 4f35 0b3e
00000070: 4a4f 813b 4b1e 27bc aab2 793e 3333 383c
00000080: 3dec 2a3e 4242 c33d cc42 f1bd 4c86 703d
00000090: d338 023e e11e 793e 9c28 7a3e 3d65 4a3d
000000a0: a049 8f3d 04a3 15bc cc4d 1f3d 087e 6d3e
000000b0: 8f6d 353e 1ab5 efbb 3aa2 dd3d 9cfe 383c
000000c0: 5529 6a3d 01be 17bd dfa3 5c3e 94a7 37bd
000000d0: aa68 a4bc 3ad2 b03c f5ea 6e3d f434 ee39
000000e0: 5223 97bc 1519 823e 5d86 d6bd 28e6 c8bd
000000f0: 2989 083e a74d 783e 4451 21bd 6edb 62bc
00000100: f2b3 6e3d e3a3 8d3c f2e1 95bd 684e 8fbc
00000110: 19df 8b3e 91f1 9bbd c483 d23c dcb9 da3d
00000120: 16c0 193d c8ef 3d3e d7e8 043d 3607 febb
00000130: b8cc bd3e 2d73 9c3e 99d2 433d 028b c4bd
00000140: 7110 5b3e 477c ffbc 83c8 0fbd 6544 b03e
00000150: 471b 163e 495f c13c 090d a13d 4e6b a93e
00000160: 0309 adbd 6ce4 8a3e 4b00 363f 8b62 143d
00000170: cadd e1bd 831d 363d 68a1 bf3c 5b3f 573d
00000180: 666d 9d3e e36b 22bc 4f33 743c 54b6 76bd
00000190: fd1e b33d bddb 2dbd a6e9 a03d 9577 f53d
000001a0: da15 303d fb56 adbd 5e56 a13e 7a48 5bbd
000001b0: 141d 233e ecd7 713c 365a 2d3f 9a82 683e
000001c0: 06b1 e53c 6c36 b9bd 4e88 283d cd60 983e
000001d0: 6b73 3a3e ef21 8e3e 2409 e1bc 80f4 6e3e
000001e0: 9b10 383d 0812 3d3d 52e8 123e 458d 7c3e
000001f0: cc10 5bbc dbe2 993d 6046 ea3c 27a8 b1bc
0.15621059 0.20088804 -0.030951671 -0.0786943 0.013184069 -0.048190184 -0.09214098 -0.35927233
-0.052304 0.23340897 0.2610474 0.14952531 0.35695007 0.2328828 -0.053557463 0.4922924
0.2009864 -0.02046174 -0.030366985 0.07670257 0.23137881 -0.0438824 0.058445632 -0.010821909
0.19712132 0.6800523 -0.04186016 0.13594554 0.0039462196 -0.0102000935 0.24384561 0.011242676
0.1669168 0.09534122 -0.117803186 0.058721825 0.12716989 0.24328186 0.24429554 0.049412955
0.06996465 -0.009133104 0.038892552 0.23192608 0.17717575 -0.00731529 0.10821958 0.011291172
0.057168324 -0.037046436 0.21546887 -0.04483755 -0.020069439 0.021584619 0.05832954 0.0004543435
-0.01844946 0.2540976 -0.104748465 -0.09809524 0.13333572 0.24248372 -0.03938414 -0.013846261
0.058277078 0.017290061 -0.07318486 -0.017493442 0.27318648 -0.076144345 0.025697596 0.10679981
0.037536703 0.185485 0.032448616 -0.0077523245 0.3707025 0.30556622 0.047808263 -0.09596826
0.2139299 -0.03118719 -0.035103332 0.3442718 0.14658843 0.023605006 0.078638144 0.3308968
-0.084489845 0.27127397 0.710942 0.03622679 -0.11028631 0.04446174 0.023392394 0.052550655
0.30747527 -0.0099134175 0.014904811 -0.060232475 0.08746145 -0.042445887 0.07857065 0.11985699
0.04298959 -0.08463856 0.31511205 -0.053535916 0.15929061 0.014760952 0.67715776 0.2270607
0.028038513 -0.09043583 0.041145615 0.29761353 0.18208091 0.27760264 -0.027470179 0.23335457
0.04493771 0.046159774 0.14346436 0.24663265 -0.013370704 0.07513972 0.02859801 -0.021686627

fc3.weight f4 [3, 128]
00000000: ee7d 263e c852 4b3e 8871 e53c c100 83bd
00000010: f593 913d 1bf8 b1bc 52c4 453d 25ff 9c3d
00000020: 56a6 d83d 99c7 863d 40aa b33d 2f8b a83e
00000030: 677a 0b3d a886 8e3d 1b8d 62bc 254e ff3d
00000040: 8507 9d3c 28bf 55bc 0f39 a4bd 00f7 74ba
00000050: e29c bc3d 815f 90bd 0637 ce3e e8b4 b0bc
00000060: ef50 a83d 7b57 23bf 0b78 ab3d 8458 20bc
00000070: 8111 bebc 192b 67bd 97e9 6a3e fc1f f8bc
00000080: bdaf 8c3d 5766 e73e c334 eb3b 288b 33bd
00000090: 6dcb 7a3d e100 9d3e 5859 883d e29a f23c
000000a0: 4818 aebc b77b 9b3d 81a0 9abd 595d 473d
000000b0: 27c9 033e e7f5 4fba a855 d93d ed0f 933d
000000c0: 2168 a13c 6877 003d 2992 fe3d ad13 02bd
000000d0: a0d5 3a3d bf4f 46bc 7244 593d aa84 64bc
000000e0: fc44 10bc 51ed ad3d ca19 443d 00f5 87b9
000000f0: e891 aabd 1c57 a63e 6546 f0bc 20dc 0dbb
00000100: 9fdf abbd c8e7 733c 2197 33bd c31b 90bd
00000110: ab69 603d 94f7 23bd 9faa 943d 1acd e0be
00000120: d935 843d 3389 803d 8077 de3a 9dd6 f53b
00000130: 6028 07bc 4325 d33e cb03 a43d 112d 3f39
00000140: 8ab0 8c3d aef8 a53d ad79 4e3d 0284 1c3d
00000150: 30a7 a33c 8471 e2bc 4f7d 3cbd 4857 cc3d
00000160: bdf6 37bc 7882 ec3c db93 8fbe 0365 b83d
00000170: 4904 51b8 cdae e6bc 20c8 6d3b 70a2 783d
00000180: 3d38 6a3d 7334 003d 5a9c ebbc 5418 77bc
00000190: 37e3 8f3d d0a5 083f 5de8 dbbc a409 cd3e
000001a0: ce01 f5bc 36fa cf3d 284a c33d d53a 0fbd
000001b0: 2134 ac3d 4f95 95bc b54d 8fbc ecd3 0e3f
000001c0: 76cf 693d 895a a73d 0256 643d 40de 153e
000001d0: 559c 603e b9f8 48bb a2a1 443d 417c 3b3d
000001e0: af40 ad3d 2497 88bc 45b5 fc3d 97b0 593d
000001f0: 9b71 42bd 807c a2ba d568 ef3c 3b43 9d3c
00000200: db1c 443d c20b 7e3e 22ec c2bc 2a26 463d
00000210: 2483 6cbd 9ff8 bebc 614f ab3b c554 983e
00000220: 6fa3 4abb 348c 773e 8df3 a03d 1e85 013f
00000230: 220b c53d c9a6 763d 6ff2 3ebd 0d78 733d
00000240: 5d52 043e eb88 32bd 538f 91bd de97 2e3d
00000250: 0a1c cf3d 28fe a1bc 90a4 c33e 3309 b13d
00000260: d71e 6f3d 7e17 57be d880 34bc f040 c53d
00000270: 2ce6 05bd be5d ef39 49d8 00bd a65c d6b8
00000280: 6644 7c3e f4ec d63e ab21 523b 82a1 63bd
00000290: 89c2 823d 3e34 4a3d 7913 003e f313 a73c
000002a0: 603e 0e3d 399b 59bd 07b8 a53d bf69 bd3c
000002b0: 20bf 9c3e 0a01 0a3d 78de 0b3e 84e5 8c3c
000002c0: 5a2b 323d 1aa8 2c3d 5cea ad3d cc00 86bd
000002d0: 3d7f 2fbd 6023 6d3b 4868 a53d fca8 093d
000002e0: 1e19 1fbd 87a8 9d3d 4b4c a9bc dccf 67bd
000002f0: 8282 6f3d 21bd 623e 0445 80bd aa11 9ebd
00000300: dfb6 8abc 1b15 803d f2ff 6ebd 4415 f23c
00000310: 228b 6f3d 888e e13c d89d 64bc 0540 54be
00000320: cf3b 843d 4b47 d23d 6f89 a83d 4f6a 47bc
00000330: f466 053b 0125 703e 7482 cabc 0af3 1bbd
00000340: d05f 263d 18a1 743c 80f1 8abb 53e1 6b3d
00000350: 1bbe 983d ea8b a3bd b0c3 5ebc 3b3c 993d
00000360: 5feb 1fbd ba23 b93d 3231 6fbe d03f 923d
00000370: f9b9 a13b 7a98 a4bd 7bfc 24bc 27bd 9b3a
00000380: a505 813d 15f1 b53b e059 afbc d988 26bd
00000390: b64e 4f3d e046 b43e 1260 6dbd e255 f83e
000003a0: 9fe6 873d 5c4a 98bc 7d3b a73d 58e4 443c
000003b0: 7593 cc3c bff9 7dbc 2d29 c9be 874f b7bd
000003c0: 4e3f 823b 3412 433d 7ba9 aebd 6470 233d
000003d0: e3e1 6f3e 7b0b 513d 2821 923c 983b 9a3d
000003e0: 34f0 2fbd c9fd a9bd 8ac7 75bc 7149 643d
000003f0: f330 9a3d 4377 a23d 46e6 34bd cc8f dcbb
0.16258976 0.19855797 0.028008237 -0.06396628 0.07108299 -0.021724751 0.04828293 0.076658525
0.10578601 0.06581039 0.08772707 0.3291869 0.03405228 0.069592774 -0.0138275875 0.12466077
0.019168625 -0.0130460635 -0.080186956 -0.0009344667 0.092096105 -0.07049466 0.40276355 -0.021570638
0.08218562 -0.6380536 0.08372506 -0.009786729 -0.023201706 -0.056437586 0.2294067 -0.030288689
0.06869457 0.45195267 0.0071779205 -0.04383388 0.06122916 0.30664733 0.06657666 0.02961487
-0.021251813 0.07591956 -0.07550145 0.048673008 0.12869702 -0.00079330656 0.10612041 0.07180772
0.019702973 0.031363875 0.124302216 -0.031757046 0.045613885 -0.012103974 0.05304379 -0.013947645
-0.00880551 0.0849253 0.047876157 -0.00025931746 -0.08328611 0.32488334 -0.029330442 -0.0021646097
-0.08392262 0.014886804 -0.0438453 -0.07036545 0.054788273 -0.04003103 0.07259106 -0.4390648
0.06455583 0.06276169 0.001697287 0.0075023905 -0.008249372 0.41239366 0.08008536 0.00018231968
0.0686961 0.081040725 0.050409008 0.03821183 0.019977182 -0.02764202 -0.04601794 0.09977585
-0.011228261 0.028870806 -0.28042492 0.090036415 -4.9833474e-05 -0.028159523 0.0036282614 0.060701787
0.05718254 0.03130002 -0.028761078 -0.015081484 0.0702576 0.5337801 -0.026844198 0.40046418
-0.029908087 0.10155146 0.095356286 -0.034968216 0.0840838 -0.018259672 -0.017493108 0.5579212
0.057082616 0.08171565 0.055746086 0.14635563 0.21934636 -0.0030665828 0.048005708 0.045772795
0.08459603 -0.016673632 0.12339262 0.053146925 -0.047471624 -0.0012396723 0.029224792 0.019197097
0.04787908 0.24809173 -0.023794238 0.04837624 -0.057742253 -0.023311911 0.0052279686 0.29752174
-0.0030920168 0.24174577 0.078589536 0.50593746 0.09621264 0.060217652 -0.04661792 0.05944066
0.12922044 -0.043587606 -0.07107415 0.0426253 0.1011277 -0.019774511 0.3821149 0.08644333
0.05837902 -0.21005055 -0.011017047 0.096315265 -0.032690212 0.00045655476 -0.031456266 -0.00010221572
0.24635467 0.41977656 0.0032063525 -0.055573948 0.06384761 0.04936623 0.12507428 0.020395255
0.034727454 -0.053126547 0.08091741 0.023121713 0.30614567 0.033692397 0.13659084 0.017199285
0.043498375 0.0421525 0.08491966 -0.06543121 -0.042845953 0.0036184415 0.08076531 0.03360842
-0.038842313 0.0769816 -0.020666262 -0.056594715 0.05847407 0.2214246 -0.06263164 -0.07718213
-0.016932903 0.062540255 -0.058349557 0.029551156 0.058482297 0.027533785 -0.0139536485 -0.20727547
0.0645672 0.10267504 0.082293384 -0.012171342 0.0020355554 0.23451616 -0.024720408 -0.038073577
0.040618718 0.014930986 -0.004240215 0.057587933 0.07458135 -0.07985671 -0.01359646 0.07482191
-0.039042827 0.090400174 -0.2335861 0.071410775 0.0049354997 -0.08036895 -0.010069962 0.0011881933
0.06299905 0.005552421 -0.02140516 -0.04065785 0.050612174 0.35210323 -0.057952948 0.48503023
0.06635784 -0.018590145 0.08165643 0.012017332 0.024972657 -0.015501439 -0.39289227 -0.089507155
0.0039748317 0.04762478 -0.085284196 0.039902106 0.23426013 0.05103634 0.017838076 0.07530898
-0.042953685 -0.08300359 -0.015001187 0.0557341 0.075288676 0.079329036 -0.04416492 -0.006731009

fc3.bias f4 [3]
00000000: 9877 9a3e 4a91 e83b 654f 0b3e
0.30169368 0.007097398 0.13604505
